jupyter_practice/net.pth (torch_old, 775 bytes, 3 tensors)

param1 f4 [3, 3]
0	0x3eadf716	0.33977574
1	0x3f0620fc	0.5239408
2	0x3f4c4dea	0.7980639
3	0x3f45929c	0.77176833
4	0x3c37e740	0.011224568
5	0x3f4f598e	0.80996025
6	0x3f23c232	0.63968194
7	0x3f796a44	0.97427773
8	0x3f547cd7	0.8300299

submodel1.weight f4 [4, 3]
0	0xbf06aaec	-0.52604556
1	0xbf0c87f4	-0.5489495
2	0xbe8e9438	-0.27847457
3	0x3f01c950	0.50697803
4	0xbdc4f410	-0.09616864
5	0x3e7d0330	0.24708247
6	0xbe895ec8	-0.26830125
7	0x3f110692	0.5665065
8	0xbe7a237c	-0.24427599
9	0x3eddae24	0.4329692
10	0x3be00700	0.006836772
11	0xbe9bba9f	-0.30415818

submodel1.bias f4 [4]
0	0x3e97f1ca	0.29676658
1	0xbe9ce986	-0.30646914
2	0x3e2de06c	0.16980141
3	0xbe2ab716	-0.16671404
